mltrain/output_models/parkinsons_model.tflite (tflite, 8536 bytes, 7 tensors)

arith.constant f4 [64]
00000000: 8868 ba3d d4f9 033e 0fbe 73bc fc03 f33b
00000010: 581d b8bb 43f6 823d a5c1 83bd 079c 19bd
00000020: 2e28 69bd ef09 05bd fbfd d33d 20a9 433b
00000030: fb2a b0bd d21f 83bd 7f7c fe3c 0365 a3bb
00000040: b04f 0ebd 2942 2b3d 523b a73d 12be 103d
00000050: 9ff6 9d3b 682a cb3d 0c73 29bd 2ab4 98bc
00000060: bde9 74bd 93c7 e83d c916 6dbd 91b1 9cbc
00000070: 58d0 64bd 24b4 0ebd d6b5 203c 3402 013e
00000080: 18c2 8dbc 23f7 17bd 632e 6c3d e28e dd3c
00000090: e7bf 9fbc 0912 a93a 16b2 7c3d 8815 883d
000000a0: f82b 823c ac28 5b3d 5506 513d 2824 e63c
000000b0: b8d1 7f3d 4aec 873d 0fe6 1c3d 1703 d53c
000000c0: 65d8 bcbc 7d1b 23bc 94b8 39bc 8213 c1bc
000000d0: ce0a 303a c217 a63c d5ef 613d d543 b93c
000000e0: 5849 943d de5d 043e 7ab7 e83c 877b c83c
000000f0: 27e3 60bd 2581 b43d bcda 87bc e3ed 01bc
0.09101969 0.1288827 -0.0148768565 0.0074162465 -0.0056187324 0.06394627 -0.06433419 -0.037502315
-0.056923084 -0.032480177 0.10351177 0.0029855445 -0.08601948 -0.064025536 0.031065224 -0.004986407
-0.034743965 0.041811142 0.08165611 0.035337515 0.0048206593 0.09920198 -0.041369483 -0.018640596
-0.059793223 0.11366191 -0.057883058 -0.019127639 -0.055862755 -0.034839764 0.009808978 0.12598497
-0.017304465 -0.037100922 0.057661425 0.02704567 -0.019500686 0.0012899052 0.061693273 0.06644732
0.015890107 0.053505585 0.05103143 0.028093413 0.062455863 0.066368654 0.03830534 0.02600245
-0.023052404 -0.009955284 -0.011335511 -0.023568872 0.0006715477 0.020275 0.055160362 0.022615353
0.07240552 0.12926432 0.028407801 0.024472965 -0.05490413 0.08813695 -0.016583793 -0.007930252

arith.constant1 f4 [32]
00000000: a008 f6bc d292 dc3d 1458 dabc 8a16 c43c
00000010: ec25 36bd 1edd 803d fe53 d4bc 6e70 c9bc
00000020: 7cf3 a93d 6c11 24bd 5221 b83d 405c ab3c
00000030: fcd6 2b3d 07ba 093b b2e6 ee3c bce4 f0bb
00000040: 76d5 d0bc b1e1 8a3d 7815 08bd b1ec 12bd
00000050: 8b71 b63d acb6 083d f1b4 143d 21ad e13d
00000060: a2e6 613d 23b2 ab3d 84ee f6bc b26b e43d
00000070: 7dfc 9f3d b2be 1d3d b27a 24bd 09a6 913c
-0.03003341 0.10770191 -0.026653327 0.023936529 -0.04446976 0.06292175 -0.025918957 -0.024589743
0.08298394 -0.040055677 0.0899073 0.020918012 0.041953072 0.0021015422 0.029162738 -0.007351486
-0.025492411 0.067813285 -0.0332236 -0.035870258 0.08908375 0.033377334 0.03630537 0.1101935
0.05515159 0.08383586 -0.03014303 0.11153354 0.0781183 0.03851194 -0.040156074 0.017779367

arith.constant2 f4 [16]
00000000: 46a0 0cbc 80f0 60bd b6bf cd3d 7b8a d3bc
00000010: adf6 2ebd 019d de3d 50ca 013e f778 0abd
00000020: 8dff dd3d dfe8 2dbd 2238 00bd 8561 dcbc
00000030: e00a ab3d 771d b63c 56c2 f63c 909c ebbc
-0.008583134 -0.05491686 0.100463316 -0.025822869 -0.042715717 0.1086979 0.12674832 -0.033806767
0.10839758 -0.04245841 -0.031303532 -0.02690197 0.083516836 0.022230847 0.030121963 -0.028761178

arith.constant4 f4 [1, 16]
00000000: 63df 82be 920d 01be b82b 393e 1f04 b0be
00000010: 8a2e aabe 90e7 0e3f 946e c63e 87e5 acbe
00000020: a080 c63e 0c0f 0ebf 0e64 adbe 7e14 14be
00000030: 5135 893d 32a4 bb3d 139e 883d 70fa 9fbe
-0.25561056 -0.12602833 0.18083084 -0.34378144 -0.3323863 0.55822086 0.3875624 -0.33768865
0.38770008 -0.5549171 -0.33865398 -0.14460942 0.066996224 0.09162177 0.06670775 -0.31245756

arith.constant5 f4 [16, 32]
00000000: 962d ac3e c41f 6fbe 1ae3 1f3e d8b4 f63d
00000010: 228c e03d 8804 83bd 2290 333d 6f17 903e
00000020: df23 b8be 8d42 0abe 1c58 d0bc d576 d53d
00000030: 5193 27be b7fb 89be 40ae b0be 5de0 063e
00000040: 7bc7 563e bda6 88bd fc0f 543e fa85 a83b
00000050: 6c67 86be 1320 0dbe 747e 3abe 2186 013e
00000060: 2306 acbd e123 84be 6f0b 98be bd69 d23d
00000070: 6d23 383e c8f6 823e f561 5d3e a4dd c33e
00000080: 8e74 22be 0eea 2bbe cf9c 46be 0772 ae3d
00000090: b8ef aa3e 9410 643c 7ebf c53e b57c a23c
000000a0: 5690 ac3d b107 393d bec6 7dbe 9381 103e
000000b0: a489 103e 734f e53b ed0b cf3d 5e61 6abe
000000c0: 3802 353e 9a61 b23d 535b e3bd 5d88 b13d
000000d0: 084f 383d f3e0 81be 955f 46bd 6d11 93be
000000e0: af93 1abc 9da9 32be b5ef cc3d c54c 113d
000000f0: 6c1f d33d b1c9 c43e 2a50 823e 6f78 773e
00000100: 52e6 a2bd e97e ba3e 654f 983e eb77 7bbd
00000110: e9cc 9e3e d43e e03e 1caa 89be eb6d 8cbe
00000120: 6497 f23c 6c8f 97be 90d2 a83d 1748 a53e
00000130: f2d3 303c ff6e adbe 9ef1 09bd defb 593e
00000140: f49d 17ba 272b e63e 937b a63e 2f47 86bd
00000150: a823 063e 7621 573a 55df 4fbe 64c9 4f3d
00000160: ff88 6fbe 654a 9a3e 37d0 8abd 529c 2b3e
00000170: 199b 873e fe84 dcbe e5ad 443e 2a42 a7be
00000180: 73ad b93e 560a 643e 4a43 06bd 7911 0e3e
00000190: 878b abbe 1f93 023d e244 413e 9407 6e3d
000001a0: 4d71 ed3d 21bb 04bd 5b4e 66be 2eaf 253c
000001b0: feb2 a33e dd29 3d3d 60b0 8cbe 7371 e73c
000001c0: 33ee 48bd 1a9c b03d 4833 e63d e753 89be
000001d0: 0a9a 583e de8c 9fbe 156e 8fbd ebd1 35be
000001e0: c26c 4fbe 723d 86be d06e b5bd 624e 38be
000001f0: 86d1 163d 3148 a33e 9da2 20be af97 3f3e
00000200: 8286 123e 501a eabd 499f 593e 0aa5 0ebe
00000210: 6147 883e c828 d6bd 5896 d33d 9150 98bd
00000220: 9513 bd3d 3048 abbe de05 59be 7584 b5be
00000230: 29ff b7bd a3c9 1dbe a9dc 4fbe 733c 87be
00000240: 8037 6f3a 91a9 01be 248c 2ebe 6898 2fbe
00000250: 73d6 abbe e9ba c53d 6d03 88be 5aed 6d3e
00000260: 061c 973e 422f 06be 072f 003e 1d12 f0bd
00000270: f289 95bb 1c28 6e3d 816b bb3e 2a44 77be
00000280: cd07 b13d 452e 9e3e c916 b1bd 387f 9a3d
00000290: 3c50 32be 03f6 34be 4dfb b7be 091a a3be
000002a0: ba97 bb3e 4b98 8fbe 8361 563e 45fe a5bc
000002b0: 394b ae3e 30fb 65be 20cf 8c3d fb63 85be
000002c0: 903e 10be 4cae 973e 0cd7 7dbe d623 dbbd
000002d0: 84b7 dd3e 056b 2d3d b0f9 6f3e 0298 9f3e
000002e0: 84dc e73d 2800 583d fb07 90be 03b6 b43e
000002f0: 7c62 cc3e 6f3c a0bd ee92 0fbd 6a3a 583e
00000300: 8f60 eebc 418a 553e 8bc5 b83e caa3 693e
00000310: 5441 28be 3450 bb3e b62c 74be c240 68be
00000320: b0de 9c3e 92a7 a43d 7f18 f23c 33e4 8cbd
00000330: e645 103e c44b 27be 75f1 b03d fabe 023d
00000340: d1f3 39be a28f 37be e287 0ebe 3f3c 41be
00000350: 8c5c 82bd 7c3a 213d 1970 a33e c528 9d3e
00000360: f98a 21be f577 d83e 71fb 1e3d b112 ab3c
00000370: 69af 343c 07d5 aebe 004f 84be 1968 283d
00000380: 0941 54be fb24 bdbd e79e 8d3e 8412 85be
00000390: f9d7 743e c87e 92be 15dc c33e 06db 673b
000003a0: 5714 8a3e 466c cb3b 7623 9dbe fec8 44be
000003b0: 4b7c 9c3e 10b6 09bd 26dd 79be bf68 a03e
000003c0: bf34 28be ba2c c3bd f964 073d e28f 7d3e
000003d0: 182b 6fbd de5d 783e 79fa 5cbe b079 3a3e
000003e0: 1979 463e 2884 93bd a38b 29be afe5 7abe
000003f0: ac12 3fbe 4772 be3e bedb 383e 164a 8a3e
0.3362853 -0.23351961 0.15613976 0.12046212 0.10964228 -0.06397349 0.043838628 0.28142878
-0.35964867 -0.1350195 -0.025432639 0.10423056 -0.1636479 -0.26949856 -0.34507942 0.13171525
0.20974533 -0.06672428 0.20709223 0.0051429244 -0.2625078 -0.13781767 -0.182123 0.12648822
-0.08399608 -0.25808623 -0.29696223 0.10274074 0.17982264 0.25578904 0.21619399 0.38255036
-0.15864775 -0.16788504 -0.19395755 0.08517843 0.33386016 0.013919968 0.3862266 0.019834856
0.084259674 0.04517335 -0.24782845 0.14111929 0.14115006 0.0069979965 0.101096965 -0.22888705
0.17676628 0.08710022 -0.11101403 0.08668587 0.044997245 -0.25366935 -0.048430998 -0.28724232
-0.009434625 -0.17447515 0.10006658 0.035473604 0.103087276 0.38435128 0.25451785 0.24167036
-0.07954086 0.3642495 0.29748073 -0.06139366 0.3101571 0.43797934 -0.26887596 -0.2742761
0.029613204 -0.2960161 0.082432866 0.32281563 0.010792719 -0.33873746 -0.03367769 0.21287486
-0.000578373 0.44954798 0.32516155 -0.06556546 0.1309954 0.0008206585 -0.20300038 0.05072917
-0.23392104 0.30134884 -0.06777995 0.1675885 0.26485518 -0.43070215 0.1920696 -0.32667667
0.36265144 0.22269568 -0.032779016 0.13873853 -0.33504888 0.031878587 0.18873933 0.058112696
0.11593876 -0.032405023 -0.22490828 0.010112567 0.31972498 0.046182502 -0.27478313 0.028252339
-0.04905529 0.08623524 0.1124025 -0.26821825 0.21152511 -0.3116216 -0.07003418 -0.17755859
-0.20256332 -0.26218754 -0.088590264 -0.1799865 0.03682091 0.31891015 -0.15687032 0.18710206
0.14309123 -0.114308 0.21252169 -0.13930145 0.26616958 -0.10456997 0.1033141 -0.07437242
0.092322506 -0.33453512 -0.21193644 -0.3545262 -0.08984215 -0.1540895 -0.20299019 -0.26413307
0.00091253966 -0.1266234 -0.17045647 -0.17147982 -0.3356205 0.09654791 -0.26565114 0.23235074
0.29513568 -0.13103965 0.1251794 -0.11722205 -0.0045635635 0.05814372 0.36605456 -0.24147096
0.08644066 0.30894676 -0.08646924 0.07543796 -0.1741342 -0.17671971 -0.35933915 -0.318558
0.36639196 -0.28045878 0.20935635 -0.020262847 0.34041765 -0.22459102 0.068754435 -0.26052842
-0.14086366 0.29625165 -0.24789065 -0.107001945 0.43304074 0.04233839 0.23435092 0.3117066
0.11321357 0.052734524 -0.2813109 0.35295114 0.39918888 -0.07824027 -0.035052232 0.21116033
-0.029098777 0.20853521 0.36088213 0.22816387 -0.1643117 0.36584628 -0.23845181 -0.22680953
0.30638647 0.08039774 0.029552696 -0.06879463 0.14089164 -0.16337496 0.08639804 0.03192041
-0.18159415 -0.17925885 -0.13919023 -0.18870638 -0.06365308 0.039362416 0.3192146 0.30695167
-0.1577567 0.4227902 0.038814012 0.020882936 0.011028149 -0.34146902 -0.25841522 0.0411149
-0.20727934 -0.09235569 0.27660295 -0.2599069 0.23910512 -0.2861235 0.38253847 0.003537835
0.26968643 0.0062079756 -0.30691117 -0.19217297 0.30563578 -0.033620894 -0.24400768 0.31329915
-0.16426371 -0.09530015 0.03305528 0.24761918 -0.058390707 0.24254557 -0.21579923 0.18210483
0.19382133 -0.07202941 -0.16557173 -0.2450168 -0.18659467 0.37196562 0.18052575 0.27009648

tfl.pseudo_qconst i1 [32, 64] scale=0.0030758898 zero_point=0
00000000: 24ec dcbd ccd9 4905 3d10 b801 ef0d e61e
00000010: 33a6 f2ff 48dd c5df 17ff 35e5 134d d8d7
00000020: 1a2d 40b3 3bd0 a43e 153a 59dc de14 1a40
00000030: c405 ad4c 51fe 36e5 e327 28dd 4624 0de7
00000040: e002 0ef5 cc00 01d3 d534 6a05 03de e10c
00000050: 00cf 3cea 3868 1014 da57 f1ce 1240 d6f1
00000060: dfcc 0be5 bf5c df22 2bca cb70 e2ef e1e5
00000070: 02cb f1e0 efd0 5e30 0d4c 043c 36c5 c3f4
00000080: 48fe 10d2 38cf d81c fb22 b6c6 ecdb 280c
00000090: 092e c6a9 2636 0615 bc03 d238 0b08 1445
000000a0: 33de 1905 3de5 fd25 44ed 3621 bfb0 d705
000000b0: 30f9 1121 f229 3b44 e2b5 1909 ebde e2ea
000000c0: cbb6 2031 ea39 44f8 deb9 0d33 efc4 13c7
000000d0: b5f3 d4cc 00d7 eb25 34d9 4937 d713 56bb
000000e0: 0352 3d31 fdfa e91b c307 0a0c 3cec 5650
000000f0: c5bd f308 f841 3bf1 fde7 3d26 f1df fedd
0.110732034 -0.061517797 -0.110732034 -0.20608461 -0.15994626 -0.119959705 0.22453995 0.015379449
0.18762928 0.049214236 -0.22146407 0.0030758898 -0.052290127 0.039986566 -0.07997313 0.09227669
0.15687038 -0.27683008 -0.043062456 -0.0030758898 0.22146407 -0.10765614 -0.1814775 -0.10150436
0.07074547 -0.0030758898 0.16302216 -0.08304902 0.058441907 0.23684351 -0.123035595 -0.12611148
0.07997313 0.13841504 0.19685695 -0.23684351 0.1814775 -0.1476427 -0.28298187 0.19070517
0.06459369 0.1784016 0.27375418 -0.110732034 -0.10458025 0.061517797 0.07997313 0.19685695
-0.18455338 0.015379449 -0.25529885 0.23376763 0.24914707 -0.0061517796 0.16609804 -0.08304902
-0.0892008 0.119959705 0.123035595 -0.10765614 0.21531229 0.110732034 0.039986566 -0.07689724
-0.09842847 0.0061517796 0.043062456 -0.03383479 -0.15994626 0.0 0.0030758898 -0.13841504
-0.13226326 0.15994626 0.32604432 0.015379449 0.009227669 -0.10458025 -0.09535258 0.036910675
0.0 -0.1507186 0.18455338 -0.06766958 0.17224982 0.31989253 0.049214236 0.061517797
-0.116883814 0.2676024 -0.046138346 -0.15379448 0.055366017 0.19685695 -0.12918738 -0.046138346
-0.10150436 -0.15994626 0.03383479 -0.08304902 -0.19993283 0.28298187 -0.10150436 0.10458025
0.13226326 -0.16609804 -0.16302216 0.34449965 -0.09227669 -0.052290127 -0.09535258 -0.08304902
0.0061517796 -0.16302216 -0.046138346 -0.09842847 -0.052290127 -0.1476427 0.28913364 0.1476427
0.039986566 0.23376763 0.012303559 0.18455338 0.16609804 -0.1814775 -0.18762928 -0.036910675
0.22146407 -0.0061517796 0.049214236 -0.14149094 0.17224982 -0.1507186 -0.123035595 0.08612491
-0.015379449 0.10458025 -0.22761585 -0.1784016 -0.061517797 -0.113807924 0.123035595 0.036910675
0.027683008 0.14149094 -0.1784016 -0.2676024 0.116883814 0.16609804 0.018455338 0.06459369
-0.2091605 0.009227669 -0.14149094 0.17224982 0.03383479 0.024607118 0.061517797 0.21223639
0.15687038 -0.10458025 0.07689724 0.015379449 0.18762928 -0.08304902 -0.009227669 0.113807924
0.2091605 -0.058441907 0.16609804 0.10150436 -0.19993283 -0.24607119 -0.12611148 0.015379449
0.1476427 -0.021531228 0.052290127 0.10150436 -0.043062456 0.12611148 0.1814775 0.2091605
-0.09227669 -0.23069173 0.07689724 0.027683008 -0.06459369 -0.10458025 -0.09227669 -0.06766958
-0.16302216 -0.22761585 0.09842847 0.1507186 -0.06766958 0.17532572 0.2091605 -0.024607118
-0.10458025 -0.21838817 0.039986566 0.15687038 -0.052290127 -0.18455338 0.058441907 -0.17532572
-0.23069173 -0.039986566 -0.13533916 -0.15994626 0.0 -0.12611148 -0.06459369 0.113807924
0.15994626 -0.119959705 0.22453995 0.16917394 -0.12611148 0.058441907 0.26452652 -0.21223639
0.009227669 0.25222296 0.18762928 0.1507186 -0.009227669 -0.018455338 -0.07074547 0.08304902
-0.18762928 0.021531228 0.030758899 0.036910675 0.18455338 -0.061517797 0.26452652 0.24607119
-0.1814775 -0.20608461 -0.039986566 0.024607118 -0.024607118 0.19993283 0.1814775 -0.046138346
-0.009227669 -0.07689724 0.18762928 0.116883814 -0.046138346 -0.10150436 -0.0061517796 -0.10765614

sequential_1/dense_1/MatMul i1 [64, 22] scale=0.00294884 zero_point=0
00000000: b2a5 0a9d dba8 fcf4 c048 0ab9 4dcb a49b
00000010: 5fcf 210e d4cc bea3 0bd6 e437 2b2b 240a
00000020: 533f 406d 0b99 3516 4608 a95d fa57 1128
00000030: c1e8 f0f5 ff40 bfc7 06e4 f1d4 ee40 f2aa
00000040: 9e31 20c7 2b2e a1fa f02b 18cb cd1a be0b
00000050: c5ef a7fe d315 5ac5 1d0f dbfb c926 f136
00000060: 0e28 4345 1a38 4f26 cb01 2ad1 31c9 f001
00000070: 08ff eca0 20ca 172f 13cc 070d a629 1bca
00000080: 5af3 083d 4c10 001d f7c5 4abd f049 cfaf
00000090: 43bc e9c2 fb48 1bcc cce5 5f2c 43d1 dff8
000000a0: 3623 dd5d 4e3e 28b6 26dc deaa 3aad e4af
000000b0: 4ebc 42bc cee1 2901 0b35 e8c9 15b7 ec22
000000c0: c23c 201f af20 230e cc1e 4fc5 20d7 d9da
000000d0: 282b 28ba 4d36 f925 16a5 40b8 dcb6 fccb
000000e0: 3049 3335 e9d0 1cfd f959 470e 2144 5114
000000f0: eb54 1b72 2b16 2abf d20b beaf 22d2 cb3a
-0.23000951 -0.26834443 0.0294884 -0.29193515 -0.10910708 -0.2594979 -0.01179536 -0.035386078
-0.18872575 0.21231647 0.0294884 -0.20936763 0.22706068 -0.15628852 -0.27129328 -0.29783282
0.2801398 -0.14449316 0.09731172 0.04128376 -0.12974896 -0.15333967 -0.19462344 -0.2742421
0.03243724 -0.12385128 -0.08256752 0.16218619 0.12680012 0.12680012 0.106158234 0.0294884
0.24475372 0.18577692 0.18872575 0.32142356 0.03243724 -0.30373052 0.15628852 0.06487448
0.2064188 0.02359072 -0.25654906 0.2742421 -0.017693039 0.25654906 0.050130278 0.1179536
-0.18577692 -0.070772156 -0.04718144 -0.03243724 -0.00294884 0.18872575 -0.19167459 -0.16808388
0.017693039 -0.08256752 -0.0442326 -0.12974896 -0.053079117 0.18872575 -0.04128376 -0.25360024
-0.28898633 0.14449316 0.09436288 -0.16808388 0.12680012 0.13564664 -0.2801398 -0.017693039
-0.04718144 0.12680012 0.070772156 -0.15628852 -0.15039083 0.076669835 -0.19462344 0.03243724
-0.17398156 -0.050130278 -0.26244676 -0.00589768 -0.13269779 0.06192564 0.26539558 -0.17398156
0.085516356 0.0442326 -0.10910708 -0.0147442 -0.16218619 0.11205592 -0.0442326 0.15923735
0.04128376 0.1179536 0.19757228 0.20346995 0.076669835 0.16513504 0.23295835 0.11205592
-0.15628852 0.00294884 0.12385128 -0.13859548 0.14449316 -0.16218619 -0.04718144 0.00294884
0.02359072 -0.00294884 -0.0589768 -0.28308862 0.09436288 -0.15923735 0.06782332 0.13859548
0.05602796 -0.15333967 0.02064188 0.038334917 -0.26539558 0.120902434 0.07961868 -0.15923735
0.26539558 -0.038334917 0.02359072 0.17987923 0.22411184 0.04718144 0.0 0.085516356
-0.026539559 -0.17398156 0.21821415 -0.19757228 -0.04718144 0.21526532 -0.14449316 -0.23885603
0.19757228 -0.20052111 -0.06782332 -0.18282807 -0.0147442 0.21231647 0.07961868 -0.15333967
-0.15333967 -0.07961868 0.2801398 0.12974896 0.19757228 -0.13859548 -0.09731172 -0.02359072
0.15923735 0.1032094 -0.1032094 0.2742421 0.23000951 0.18282807 0.1179536 -0.21821415
0.11205592 -0.106158234 -0.100260556 -0.25360024 0.17103271 -0.24475372 -0.08256752 -0.23885603
0.23000951 -0.20052111 0.19462344 -0.20052111 -0.147442 -0.091414034 0.120902434 0.00294884
0.03243724 0.15628852 -0.070772156 -0.16218619 0.06192564 -0.21526532 -0.0589768 0.100260556
-0.18282807 0.1769304 0.09436288 0.091414034 -0.23885603 0.09436288 0.1032094 0.04128376
-0.15333967 0.0884652 0.23295835 -0.17398156 0.09436288 -0.120902434 -0.115004756 -0.11205592
0.1179536 0.12680012 0.1179536 -0.2064188 0.22706068 0.15923735 -0.02064188 0.10910708
0.06487448 -0.26834443 0.18872575 -0.21231647 -0.106158234 -0.21821415 -0.01179536 -0.15628852
0.14154431 0.21526532 0.15039083 0.15628852 -0.06782332 -0.14154431 0.08256752 -0.0088465195
-0.02064188 0.26244676 0.20936763 0.04128376 0.09731172 0.20052111 0.23885603 0.0589768
-0.06192564 0.24770255 0.07961868 0.33616775 0.12680012 0.06487448 0.12385128 -0.19167459
-0.13564664 0.03243724 -0.19462344 -0.23885603 0.100260556 -0.13564664 -0.15628852 0.17103271
